functionals/checkpoints/NN_PBE/state_dict_0.18.pth (torch, 60406 bytes, 34 tensors)

hidden_layers_x.0.weight f4 [32, 2]
0.49165276 0.4366677 -0.60283595 0.40641877 -0.6105338 -0.030441774 0.38403136 0.3914656
-0.49053368 0.15718696 -0.22358629 -0.08129658 -0.5014308 0.22907262 0.50788087 0.38280386
0.30869693 -0.4099052 -0.3342612 0.06886084 0.3731071 -0.52335685 -0.761331 -0.06273405
-0.2197298 0.19850974 0.109966785 -0.4721164 -0.20483194 -0.12916404 -0.46312097 0.44519517
0.44331324 -0.5577209 0.33142334 -0.36730558 0.2696986 -0.4950322 -0.3932385 -0.7026162
0.3218729 -0.30482486 -0.11889781 0.4446484 -0.22006531 0.5519359 0.2934713 0.3023146
0.343072 -0.21186091 -0.15607889 0.08394488 -0.29641458 0.53097767 -0.22849445 0.026337415
-0.32848078 -0.31352004 0.6437949 0.70965415 -0.25600132 0.28997993 0.05027923 -0.14010435
00000000: e9b9 fb3e e992 df3e 7553 1abf 1f16 d03e
00000010: f14b 1cbf 0761 f9bc c29f c43e 2e6e c83e
00000020: 3b27 fbbe 9ef5 203e cef3 64be d27e a6bd
00000030: c55d 00bf 0392 6a3e 7b04 023f defe c33e
00000040: 860d 9e3e 18df d1be 4924 abbe e906 8d3d
00000050: e507 bf3e b7fa 05bf 97e6 42bf b67a 80bd
00000060: d900 61be 2346 4b3e 4436 e13d 3eb9 f1be
00000070: 77bf 51be 9443 04be 311e edbe 9ff0 e33e
00000080: f4f9 e23e ccc6 0ebf 52b0 a93e 7a0f bcbe
00000090: ef15 8a3e dc74 fdbe 8f56 c9be a8de 33bf
000000a0: 86cc a43e 0112 9cbe b280 f3bd f5a8 e33e
000000b0: cd58 61be ac4b 0d3f df41 963e fbc8 9a3e
000000c0: 22a7 af3e 11f2 58be 25d3 1fbe 4beb ab3d
000000d0: a7c3 97be 27ee 073f 73fa 69be 90c1 d73c
000000e0: a22e a8be b385 a0be becf 243f e5ab 353f
000000f0: 9b12 83be 4078 943e 98f1 4d3d 8477 0fbe

hidden_layers_x.1.weight f4 [32]
0.88989985 1.0543386 0.98621094 0.866656 0.9865064 0.9426988 0.9806442 0.94753265
0.92921644 0.9899235 1.1414154 1.1107966 1.0032392 1.1167316 1.0477357 0.87766993
0.88212407 0.95184845 0.9816255 1.161303 0.8323488 1.0532691 0.96475625 0.9011121
0.9402431 0.9096839 0.9049483 0.8983934 1.0054108 0.9468003 0.92491347 0.9506062
00000000: 7ad0 633f 91f4 863f 5278 7c3f 2bdd 5d3f
00000010: af8b 7c3f b554 713f 800b 7b3f 8091 723f
00000020: 21e1 6d3f a06b 7d3f e619 923f 952e 8e3f
00000030: 246a 803f 10f1 8e3f 341c 863f faae 603f
00000040: e2d2 613f 57ac 733f cf4b 7b3f 94a5 943f
00000050: d014 553f 86d1 863f 44fa 763f 48af 663f
00000060: c6b3 703f 0be1 683f b1aa 673f 1cfd 653f
00000070: 4db1 803f 8161 723f 21c7 6c3f ee5a 733f

hidden_layers_x.1.bias f4 [32]
0.050192 0.045002308 -0.058884352 -0.06393771 0.061110996 0.027326338 0.07825382 -0.073069945
-0.06980097 -0.07110065 -0.052561264 0.07486607 0.04313503 -0.066786274 0.027394999 0.09677727
0.045478642 -0.09055559 -0.10051589 0.045990907 0.05655484 0.07657211 -0.058295604 0.03684755
-0.10440279 0.06244385 -0.06082689 -0.0625565 0.053510845 0.052373644 -0.058382098 -0.0853616
00000000: 2096 4d3d 5754 383d b830 71bd c6f1 82bd
00000010: 864f 7a3d 7cdb df3c 8a43 a03d b2a5 95bd
00000020: d0f3 8ebd 389d 91bd 7b4a 57bd 6253 993d
00000030: 5bae 303d 3ec7 88bd 7a6b e03c 2933 c63d
00000040: d047 3a3d 3675 b9bd 46db cdbd f660 3c3d
00000050: 0ca6 673d d7d1 9c3d 5fc7 6ebd 75ed 163d
00000060: 21d1 d5bd 1fc5 7f3d 9e25 79bd 9f1d 80bd
00000070: 302e 5b3d bf85 563d 1122 6fbd 10d2 aebd

hidden_layers_x.3.fc.0.weight f4 [32, 32]
-0.10874032 -0.087241694 0.13490283 0.018655138 0.06751966 -0.0668604 0.09561848 0.050080385
0.037721325 0.14707008 -0.02991782 0.05230543 0.05012298 -0.027486296 0.005569058 0.04882597
-0.23546647 0.027911842 -0.06791608 0.06673967 -0.07730403 -0.12803496 -0.17325312 0.11736251
-0.038774822 -0.17402314 0.08891737 -0.048308875 -0.025715439 -0.013489273 -0.097712204 0.070157
0.14064395 0.17723508 -0.14179349 0.17765811 -0.16250944 -0.005951553 0.043696392 0.07510586
0.12575293 0.10970671 -0.10381986 -0.14364338 0.13625982 0.022429476 -0.1318959 -0.08439526
0.054350063 0.13214877 -0.025672464 -0.056046765 0.025044335 -0.09692666 0.0052530556 -0.12640846
0.092809424 0.009575729 0.18730931 -0.06430802 -0.059225425 -0.05102353 -0.22603114 -0.13029893
-0.015352449 0.13271026 -0.021390524 0.05312009 0.097182766 -0.08493412 0.18482259 -0.1754924
-0.013078023 0.20028354 -0.019824909 0.13155057 -0.049113154 -0.07963078 -0.15325251 0.20989898
0.008561764 -0.1152154 -0.19488764 -0.07242032 0.04529795 0.15135956 -0.030203257 -0.14415486
-0.23036684 0.18638657 0.02083261 0.069365315 -0.12898217 -0.12149756 -0.10319394 0.05237331
-0.18885946 -0.16315617 0.1470078 -0.19016717 0.17437051 -0.063037835 0.10469312 -0.09484926
0.1119072 0.10213562 0.0102028195 -0.020858528 0.09572131 0.16232032 0.2122528 0.12969105
0.0012417521 0.19415785 -0.005704656 -0.02573781 0.06945204 -0.08993252 -0.06747139 0.11700059
-0.02677161 0.02220516 -0.16535896 -0.061876915 0.18947019 -0.00011625924 0.12291548 0.08463042
-0.14094104 -0.1310914 -0.04892044 -0.20495482 0.16906624 -0.0771154 -0.12863633 -0.16353656
-0.031721815 0.045774326 0.17577152 -0.09710459 0.00902916 0.1065995 -0.04029226 0.041722294
0.022431584 -0.05762428 0.048509505 0.053090047 0.13524167 -0.0902148 -0.17389844 -0.015815236
0.2238191 -0.19689715 -0.16764891 0.026560668 -0.0068892986 -0.118599206 -0.15066889 0.15167093
-0.106522866 0.14116588 -0.0360303 0.109238744 -0.07559835 -0.07035847 -0.24163967 0.035612345
-0.13087104 0.120730124 -0.08852983 -0.18021594 -0.03538272 -0.0006068416 0.00080818706 0.046230853
-0.17663272 -0.011050259 0.03820432 -0.16373293 0.060302347 0.18518756 0.13706166 0.1980858
0.030414915 0.07643078 0.041950557 0.06611964 -0.19004992 0.14070886 0.10689869 0.12237579
0.12516089 0.19287695 0.089895986 -0.0681196 -0.019022709 0.101845816 0.16790614 0.05134063
0.065891236 -0.059382148 0.003704428 -0.1494881 -0.09932213 0.06242689 0.14138933 0.1215026
0.041915122 -0.18106386 -0.18835366 0.07016505 -0.22311856 -0.13555948 0.017819464 0.053622473
-0.08707179 0.023145271 -0.11827517 -0.014370356 0.058860783 -0.11761831 0.1579882 0.008646383
-0.11283283 -0.011354842 0.18653868 -0.04599627 0.0011873617 -0.08898356 -0.06920197 -0.024462258
0.09308713 0.039664585 0.13520078 0.02409986 0.045971006 0.06756412 -0.07947343 -0.12925072
0.0035762717 0.051779225 0.21216908 0.18787177 0.1121156 -0.15046167 -0.17078677 -0.18300115
0.18347552 0.011532933 -0.109886914 -0.07925753 0.075872004 -0.19348542 -0.07466264 0.077991545
00000000: 3fb3 debd c6ab b2bd f823 0a3e a9d2 983c
00000010: bf47 8a3d 1bee 88bd 9fd3 c33d 1721 4d3d
00000020: ad81 1a3d 8a99 163e 3716 f5bc 383e 563d
00000030: c14d 4d3d f12a e1bc a57c b63b befd 473d
00000040: 1f1e 71be 60a7 e43c 9617 8bbd cfae 883d
00000050: 9351 9ebd 991b 03be 4469 31be c15b f03d
00000060: 59d2 1ebd 1f33 32be 4f1a b63d 87df 45bd
00000070: 2fa9 d2bc 1d02 5dbc 561d c8bd 79ae 8f3d
00000080: f804 103e 1d7d 353e 5032 11be 02ec 353e
00000090: e068 26be 3f05 c3bb fdfa 323d 1ad1 993d
000000a0: 60c5 003e e9ad e03d 829f d4bd 4017 13be
000000b0: b287 0b3e 05be b73c b80f 07be 6cd7 acbd
000000c0: 2c9e 5e3d 0252 073e 0f4f d2bc 4b91 65bd
000000d0: c729 cd3c 7c81 c6bd d321 ac3b 3871 01be
000000e0: de12 be3d 85e3 1c3c 03ce 3f3e ecb3 83bd
000000f0: 5c96 72bd 0dfe 50bd b574 67be 156d 05be
00000100: d788 7bbc 33e5 073e 2e3b afbc 7494 593d
00000110: c207 c73d f1f1 adbd 2242 3d3e 48b4 33be
00000120: 3445 56bc 2117 4d3e d967 a2bc 31b5 063e
00000130: e02a 49bd 7615 a3bd 3aee 1cbe c2ef 563e
00000140: a446 0c3c 0df6 ebbd a090 47be 1b51 94bd
00000150: 588a 393d 00fe 1a3e d26c f7bc 559d 13be
00000160: 49e5 6bbe 1fdc 3e3e 26a9 aa3c 670f 8e3d
00000170: e713 04be b6d3 f8bd 5857 d3bd 6585 563d
00000180: 6064 41be 6912 27be 3689 163e 2fbb 42be
00000190: 2f8e 323e fb19 81bd 5969 d63d 5440 c2bd
000001a0: 9a2f e53d 7b2c d13d ba29 273c 81df aabc
000001b0: 8909 c43d 4c37 263e cc58 593e bbcd 043e
000001c0: 49c2 a23a 51d1 463e 1fee babb 1ad8 d2bc
000001d0: df3c 8e3d 8b2e b8bd 712e 8abd 019e ef3d
000001e0: 2350 dbbc 99e7 b53c dc53 29be a672 7dbd
000001f0: 7904 423e 34d0 f3b8 1cbb fb3d b752 ad3d
00000200: d952 10be d33c 06be cd60 48bd addf 51be
00000210: b31f 2d3e aeee 9dbd 3eb9 03be 2176 27be
00000220: bcee 01bd dc7d 3b3d 73fd 333e c5de c6bd
00000230: 0bef 133c d750 da3d 7f09 25bd ffe4 2a3d
00000240: 71c2 b73c 7007 6cbd e7b1 463d f374 593d
00000250: cb7c 0a3e 89c2 b8bd 6f12 32be f48e 81bc
00000260: d630 653e 689f 49be 28ac 2bbe c295 d93c
00000270: a0bf e1bb 24e4 f2bd f248 1abe a04f 1b3e
00000280: a928 dabd ca8d 103e 8294 13bd 90b8 df3d
00000290: 4fd3 9abd 1a18 90bd 6470 77be 40de 113d
000002a0: 0f03 06be 5b41 f73d 214f b5bd 878a 38be
000002b0: 79ed 10bd 7314 1fba 84dc 533a 905c 3d3d
000002c0: 35df 34be 250c 35bc 227c 1c3d 9ba9 27be
000002d0: 98ff 763d cfa1 3d3e e459 0c3e 01d7 4a3e
000002e0: b328 f93c be87 9c3d 59d4 2b3d bc69 873d
000002f0: 729c 42be fc15 103e b3ed da3d 28a0 fa3d
00000300: 2d2a 003e 8981 453e 631b b83d 4a82 8bbd
00000310: 83d5 9bbc 8a94 d03d 96ef 2b3e 8d4a 523d
00000320: fcf1 863d b23a 73bd fdc5 723b 6913 19be
00000330: 6769 cbbd 57b3 7f3d 5dc8 103e 5bd6 f83d
00000340: 31af 2b3d ce68 39be c8df 40be b2b2 8f3d
00000350: 3179 64be 1bd0 0abe 20fa 913c 3da3 5b3d
00000360: b252 b2bd 279b bd3c 413a f2bd a471 6bbc
00000370: 0118 713d dee1 f0bd a9c7 213e 8fa9 0d3c
00000380: e614 e7bd a909 3abc ff03 3f3e 9666 3cbd
00000390: 3fa1 9b3a 033d b6bd c3b9 8dbd 1365 c8bc
000003a0: 77a4 be3d 5577 223d 1372 0a3e 126d c53c
000003b0: 184c 3c3d 0f5f 8a3d f7c2 a2bd 4d5a 04be
000003c0: e25f 6a3b 7416 543d da42 593e 7561 403e
000003d0: dd9c e53d a012 1abe bae2 2ebe a764 3bbe
000003e0: 02e1 3b3e a1f4 3c3c 640c e1bd c651 a2bd
000003f0: c862 9b3d 0b21 46be bae8 98bd 08ba 9f3d

hidden_layers_x.3.fc.1.weight f4 [32]
0.88581634 1.0186876 1.0796877 0.9902395 1.0894666 1.0617689 0.9805473 1.1221471
1.0072285 1.0413294 0.9732326 0.9216059 0.95030665 0.9063448 0.99278426 1.0489889
1.0760298 0.95747477 0.92351735 1.0611458 0.97266954 1.0272379 0.914403 1.067062
0.923039 1.2313312 0.97424155 0.98082036 0.98819935 1.0388697 1.0069783 1.0753698
00000000: dcc4 623f 5b64 823f 3533 8a3f 5680 7d3f
00000010: a473 8b3f 0be8 873f 2605 7b3f 84a2 8f3f
00000020: ddec 803f 484a 853f c625 793f 5dee 6b3f
00000030: 4c47 733f 3606 683f 1c27 7e3f 4545 863f
00000040: 58bb 893f 111d 753f a26b 6c3f a0d3 873f
00000050: df00 793f 887c 833f 5116 6a3f 7d95 883f
00000060: 494c 6c3f 439c 9d3f e567 793f 0b17 7b3f
00000070: a2fa 7c3f aff9 843f aae4 803f b8a5 893f

hidden_layers_x.3.fc.1.bias f4 [32]
0.08158103 -0.062467735 0.100977026 0.08250509 0.07569801 -0.08562848 0.05693638 0.10200929
-0.08642666 0.05912987 0.10040977 0.04674741 -0.0658864 0.04125831 -0.07380218 -0.093064554
-0.06969522 -0.045729306 0.074164405 0.050631333 -0.02555318 0.051241174 0.04558896 -0.09590729
0.109319225 -0.038073514 -0.1286905 0.070398144 -0.070553064 -0.068687715 -0.0676251 -0.018484881
00000000: f413 a73d 2bde 7fbd 0bcd ce3d 6ef8 a83d
00000010: 8f07 9b3d fc5d afbd 1f36 693d 3fea d03d
00000020: 7600 b1bd 2a32 723d a3a3 cd3d 367a 3f3d
00000030: 73ef 86bd 79fe 283d 9925 97bd a198 bebd
00000040: 5ebc 8ebd a74e 3bbd 82e3 973d cd62 4f3d
00000050: e754 d1bc 44e2 513d 7dbb 3a3d 0b6b c4bd
00000060: c2e2 df3d f9f2 1bbd 71c7 03be e72c 903d
00000070: 207e 90bd 25ac 8cbd 077f 8abd 9b6d 97bc

hidden_layers_x.3.fc.3.weight f4 [32, 32]
-0.09447909 0.12725475 0.114447206 -0.06982931 -0.040987685 0.14518173 -0.044315457 -0.024093142
-0.15979792 -0.041619226 -0.03993324 -0.03853161 0.109797776 0.086878695 -0.036987286 -0.00039620022
-0.060940932 0.09449297 -0.034608275 0.12964743 0.12407009 -0.044475354 -0.030637795 0.026370825
-0.054483194 -0.030619267 0.1357228 -0.05395788 -0.020419376 -0.14931074 0.016368005 -0.009259683
0.01912331 0.048419043 -0.20979784 0.010917516 0.111804835 -0.08757771 0.15077642 -0.07135278
-0.035114847 0.09065305 0.07060478 -0.12565073 -0.15766563 -0.020958083 0.1455447 0.14271006
0.090584405 -0.19274351 0.011918156 0.04266156 -0.034534924 0.13834693 0.07307476 0.15174086
-0.10874449 -0.12453183 0.10713348 0.21043532 0.032659743 0.055611953 -0.032847792 -0.024471788
-0.13263156 0.07670452 -0.05692938 0.2174057 0.15112618 -0.21127926 0.15856835 -0.05929897
-0.083781786 0.00049703225 -0.21028249 -0.19379447 -0.14394967 -0.0028770233 -0.05183721 -0.14002495
-0.11387598 0.1667017 0.039099846 0.1178073 -0.10568908 -0.14577119 0.026988894 0.022520674
-0.053823832 -0.030489685 -0.09454788 -0.06307189 -0.16166353 -0.06062408 -0.094248466 0.20648001
-0.01647992 0.16854075 -0.09922554 -0.13317795 0.046126265 0.055974077 0.05707014 0.0012328612
0.008553069 0.03698837 0.07538713 -0.031567656 0.08460013 0.07228534 0.15187685 0.04920077
0.10969119 -0.018056689 0.107102565 0.0066949697 0.14858095 0.26819003 -0.050117515 0.2347486
-0.016005468 0.11390729 0.02241927 0.010522608 0.26216498 -0.23866533 0.19334444 -0.019258056
-0.022381123 0.030147845 -0.027409103 0.013741498 -0.10571264 -0.06049165 0.052235484 0.031201193
0.09131678 0.013339704 0.14143884 -0.019089762 -0.17969374 -0.2228849 -0.019183569 0.2505503
0.1406228 0.08259031 -0.020605633 -0.116278574 0.14147143 -0.06353744 -0.006678476 0.051457968
0.11804135 -0.07402523 0.1863922 -0.31433827 0.024379509 0.026504949 0.058638386 0.049520124
-0.13344154 -0.010958363 0.019527618 0.06962925 0.14221393 -0.2062473 -0.15954551 -0.058564097
-0.047110178 0.041393723 -0.07543678 0.14344668 0.08541192 -0.11275147 -0.16820651 -0.13132416
-0.12883686 0.15776935 0.07262014 0.17487356 -0.0574774 0.0507652 0.07655981 0.064985156
-0.08495652 -0.18430892 -0.10144973 -0.19832376 -0.113271475 -0.006654422 0.004005042 0.020928118
-0.03125931 0.23461987 -0.1776012 -0.23509894 -0.09832094 0.16001017 -0.18557258 -0.26801902
-0.020733548 0.02177123 0.06919864 0.009143916 0.15607488 -0.022465495 0.08511256 0.04293022
0.04452359 -0.10777291 0.22273722 0.094732694 0.06536695 -0.11085516 -0.0763037 0.005681745
-0.052634202 -0.079671994 0.094858244 -0.014131964 0.013868695 0.06475086 0.10238843 -0.1905603
0.16445643 -0.07170769 0.036771826 -0.13218023 -0.023268623 -0.026260227 -0.060149994 -0.11628661
0.11773812 0.03186144 -0.09786072 -0.06658995 -0.11353747 0.07471426 -0.032180224 0.017569773
0.095331766 -0.041404884 -0.035846602 0.07929971 -0.018412517 -0.11489748 0.027235778 0.06496836
-0.05091353 -0.044242863 0.094357185 -0.02336605 0.14644352 0.09736095 0.043655068 0.015582756
00000000: 417e c1bd 124f 023e 4c63 ea3d ab02 8fbd
00000010: b4e2 27bd 85aa 143e 2084 35bd fb5e c5bc
00000020: 11a2 23be ec78 2abd 0991 23bd 52d3 1dbd
00000030: a8dd e03d 75ed b13d fb7f 17bd 18b9 cfb9
00000040: 339d 79bd 8885 c13d 68c1 0dbd 4cc2 043e
00000050: 7618 fe3d ca2b 36bd 1dfc fabc a107 d83c
00000060: c529 5fbd 42d5 fabc ebfa 0a3e f002 5dbd
00000070: 8946 a7bc eae4 18be 3216 863c edb5 17bc
00000080: 7da8 9c3c 0c53 463d 3fd5 56be 62df 323c
00000090: eff9 e43d f15b b3bd 2265 1a3e 6821 92bd
000000a0: 96d4 0fbd 4ea8 b93d 3d99 903d 96aa 00be
000000b0: 1973 21be 49b0 abbc ab09 153e 9622 123e
000000c0: 5184 b93d 8e5e 45be 5f44 433c e3bd 2e3d
000000d0: 7e74 0dbd d1aa 0d3e 38a8 953d f561 1b3e
000000e0: 6eb5 debd 8b0a ffbd cc68 db3d 5b7c 573e
000000f0: 39c6 053d 5cc9 633d 688b 06bd 0f79 c8bc
00000100: 91d0 07be 4217 9d3d c82e 69bd 9a9f 5e3e
00000110: d2c0 1a3e 9759 58be be5f 223e 7ae3 72bd
00000120: c995 abbd 454b 023a 4b54 57be 0f72 46be
00000130: 8b67 13be 718c 3cbb 4153 54bd b362 0fbe
00000140: cf37 e9bd dab3 2a3e 2927 203d f444 f13d
00000150: 8473 d8bd 0b45 15be d017 dd3c 477d b83c
00000160: 6176 5cbd 81c5 f9bc 52a2 c1bd d62b 81bd
00000170: 208b 25be f550 78bd 5705 c1bd 7f6f 533e
00000180: e600 87bc f295 2c3e c336 cbbd cd5f 08be
00000190: e5ee 3c3d 1345 653d 61c2 693d f597 a13a
000001a0: 2c22 0c3c 1e81 173d 9164 9a3d 164d 01bd
000001b0: d542 ad3d 560a 943d 9b85 1b3e bf86 493d
000001c0: c6a5 e03d 9feb 93bc 9758 db3d 7a61 db3b
000001d0: 9b25 183e 3450 893e 0648 4dbd f061 703e
000001e0: e61d 83bc 3a48 e93d 9ea8 b73c 0467 2c3c
000001f0: 7d3a 863e af64 74be 16fc 453e 12c3 9dbc
00000200: 9e58 b7bc 9df8 f63c 0e89 e0bc 0524 613c
00000210: de7f d8bd 18c6 77bd e0f4 553d a599 ff3c
00000220: 4b04 bb3d c68e 5a3c 58d5 103e 2262 9cbc
00000230: a301 38be f03b 64be dc26 9dbc 2148 803e
00000240: 6cff 0f3e 1c25 a93d 25cd a8bc 7623 eebd
00000250: e3dd 103e eb1f 82bd 1ed7 dabb 97c5 523d
00000260: aabf f13d 8a9a 97bd 99dd 3e3e f2f0 a0be
00000270: 89b7 c73c e820 d93c ce2e 703d 9dd5 4a3d
00000280: e6a4 08be b58a 33bc 62f8 9f3c c899 8e3d
00000290: 87a0 113e 7e32 53be e65f 23be e8e0 6fbd
000002a0: 9af6 40bd 778c 293d 997e 9abd b0e3 123e
000002b0: 72ec ae3d 3eea e6bd 543e 2cbe d779 06be
000002c0: cfed 03be 4a8e 213e deb9 943d 0e12 333e
000002d0: 6c6d 6bbd 2cef 4f3d 64cb 9c3d f016 853d
000002e0: affd adbd 7abb 3cbe e0c4 cfbd 6215 4bbe
000002f0: e0fa e7bd 560d dabb ba3c 833b 7271 ab3c
00000300: c309 00bd 3140 703e 17dd 35be c7bd 70be
00000310: 7d5c c9bd b5d9 233e bd06 3ebe ca39 89be
00000320: 67d9 a9bc 9459 b23c 04b8 8d3d 5dd0 153c
00000330: 18d2 1f3e 8f09 b8bc 7e4f ae3d 99d7 2f3d
00000340: 5e5e 363d 0bb8 dcbd 3a15 643e 3703 c23d
00000350: 1cdf 853d 0808 e3bd 1d45 9cbd ee2d ba3b
00000360: f696 57bd 122b a3bd 0a45 c23d c189 67bc
00000370: 8639 633c 199c 843d 06b1 d13d 3d22 43be
00000380: 4467 283e 7bdb 92bd 0e9e 163d 415a 07be
00000390: d79d bebc b01f d7bc d75f 76bd ad27 eebd
000003a0: af20 f13d 2481 023d 336b c8bd 5060 88bd
000003b0: 5586 e8bd ca03 993d 69cf 03bd 7cee 8f3c
000003c0: 4d3d c33d 2b98 29bd e3d3 12bd e367 a23d
000003d0: d9d5 96bc 5f4f ebbd 911d df3c 220e 853d
000003e0: b58a 50bd 0138 35bd 573e c13d 296a bfbc
000003f0: 4af5 153e 2e65 c73d a8cf 323d d14e 7f3c

hidden_layers_x.3.fc.4.weight f4 [32]
0.7594956 0.94509614 0.91511303 0.85357934 0.91224414 0.98781204 0.96766436 0.84122115
0.94853395 0.9007011 0.9342191 0.9328136 0.9036238 1.0711844 0.8416783 0.9354004
0.7759837 0.8915203 0.9913398 0.87713104 1.0497938 0.8806142 0.8468029 0.9560571
0.8895876 0.7671481 0.9147799 0.8379594 0.822999 0.99872833 0.9199675 1.017864
00000000: 4e6e 423f d2f1 713f d944 6a3f 2d84 5a3f
00000010: d588 693f 40e1 7c3f dab8 773f 455a 573f
00000020: 1fd3 723f 5994 663f fc28 6f3f dfcc 6e3f
00000030: e453 673f 921c 893f 3b78 573f 6776 6f3f
00000040: dea6 463f ad3a 643f 72c8 7d3f a98b 603f
00000050: a55f 863f ef6f 613f 13c8 583f 28c0 743f
00000060: 03bc 633f d163 443f 042f 6a3f 8284 563f
00000070: 10b0 523f a9ac 7f3f fd82 6b3f 5e49 823f

hidden_layers_x.3.fc.4.bias f4 [32]
-0.1325456 0.008904136 -0.08510163 -0.086887285 0.10393723 -0.005114802 -0.07156694 -0.11345944
-0.07715545 0.05045163 0.08467955 -0.12117858 -0.10768679 -0.074859165 0.053574122 -0.017107105
-0.15178026 -0.18594489 0.03747109 -0.028692447 -0.00079569774 0.076462485 -0.15096925 -0.12989609
0.010846199 0.08311827 -0.1888088 0.0635044 0.054768417 -0.10579655 -0.07706626 0.03734564
00000000: 09ba 07be a7e2 113c c349 aebd f6f1 b1bd
00000010: 0bdd d43d 129a a7bb b091 92bd 6c5d e8bd
00000020: ad03 9ebd 5ea6 4e3d 796c ad3d 7a2c f8bd
00000030: e48a dcbd c34f 99bd 8a70 5b3d 3324 8cbc
00000040: 496c 1bbe 5668 3ebe 497b 193d 6c0c ebbc
00000050: 5f96 50ba 5d98 9c3d af97 1abe 7b03 05be
00000060: 41b4 313c e939 aa3d 1857 41be 980e 823d
00000070: d954 603d ddab d8bd ead4 9dbd bef7 183d

hidden_layers_x.4.fc.0.weight f4 [32, 32]
0.10232149 -0.08783139 0.06283661 -0.045638993 -0.021809962 0.23637983 -0.14264637 -0.12750055
0.0009934189 -0.08369983 0.11769148 0.059819676 0.09274786 0.075160116 -0.08072073 -0.16858642
-0.052299593 0.15893386 0.112892725 -0.2073809 0.09035688 0.053039834 -0.0071230996 0.1739379
0.059296954 0.0039035075 0.025752587 0.087040335 0.19061375 -0.052726936 -0.097706676 -0.17388274
-0.14815496 0.038029447 0.1028965 -0.014249888 -0.01112955 0.12081267 -0.14920655 -0.22674134
0.002136141 -0.016490253 0.1908613 -0.12688169 0.032509744 -0.029897742 0.006070449 -0.14855331
0.11482255 0.16184258 -0.038860977 0.026774576 -0.040316842 0.16443399 -0.21304654 0.05237785
-0.10595185 -0.0672619 0.06677029 0.040018257 0.16904059 -0.14515373 -0.052889563 0.081825115
0.098705664 -0.032344762 -0.07944761 -0.09437653 0.19050916 0.08806537 -0.19923095 0.021896392
0.023704398 0.020673843 -0.13849683 0.0286032 -0.14300041 0.026961103 -0.02744281 -0.033643596
-0.17978303 -0.09906943 -0.096967116 -0.121910945 -0.054047674 -0.052319985 0.11698864 0.035332564
-0.0359556 0.12804183 -0.0012586134 -0.10773661 0.08852593 -0.049690332 -0.106152855 -0.23748408
0.14699559 0.1179402 -0.22557554 0.06123271 -0.07439889 -0.10132543 -0.018022195 0.17977025
0.046916775 -0.1458934 0.005012149 -0.011769457 0.1516205 -0.0050884127 -0.028580451 0.098181054
0.040148843 0.061857607 0.115782574 0.013969388 0.09370789 -0.22921474 0.2264276 -0.15091366
-0.07432463 -0.16741522 -0.049284022 0.03166122 0.016423576 0.17903021 0.05167839 -0.0051303525
-0.093343735 -0.08113055 0.06727051 -0.069744766 0.13538969 0.052184325 0.19559318 -0.012161401
-0.12266379 0.06902718 -0.15899925 0.13583894 0.08734247 -0.016481651 0.11377169 -0.03800213
0.03892549 -0.03827153 0.08549989 0.02869733 -0.09352681 -0.016639637 -0.038292427 0.065986626
-0.27412418 -0.1263508 -0.084958985 0.08011212 0.008104879 -0.014185303 0.14191559 0.03775176
0.016449286 -0.05344734 -0.23718596 0.041839298 -0.063880235 -0.09561609 0.20146127 0.1830565
0.07472442 -0.11314514 -0.2058538 -0.17523439 0.08320933 0.0815419 0.07195457 0.014814068
-0.02039381 0.062059764 0.0006616131 0.11349567 -0.037371125 -0.08748694 0.15551572 -0.07501209
-0.10877759 -0.06738277 0.01502949 -0.12373336 0.026773963 0.084606394 -0.059270795 0.20231575
0.016828889 -0.09903943 -0.07591566 -0.15584876 0.16570774 -0.1013285 0.030315029 -0.042530864
-0.06362182 0.06868307 0.083692804 0.06882341 0.043055322 0.13573019 0.2044296 0.19964667
-0.059171375 -0.11950621 0.081122324 -0.20834081 0.054687545 -0.16817595 0.13081644 0.018129285
-0.118103385 -0.045853637 -0.19788894 0.05134167 -0.10546367 0.1282856 0.26834205 0.047403615
-0.008257847 -0.18475321 0.14771977 0.03334242 0.15727071 0.15571462 -0.17094378 0.08195983
-0.15611865 -0.1846352 0.27940702 0.24161296 -0.20852625 0.13131155 0.029698769 -0.12211104
0.023612719 -0.1202947 -0.16548125 -0.18622915 0.23019673 -0.066592 -0.1934249 0.0053310436
-0.09373315 0.048496258 -0.18848935 -0.10533446 -0.08920734 -0.22804067 -0.096023865 -0.057590656
00000000: ee8d d13d f2e0 b3bd 7bb0 803d f4ef 3abd
00000010: ceaa b2bc 8e0d 723e e411 12be 818f 02be
00000020: 9b35 823a d16a abbd 3b08 f13d 7a05 753d
00000030: 97f2 bd3d 8ced 993d e950 a5bd eba1 2cbe
00000040: 1938 56bd 8fbf 223e 4d34 e73d a95b 54be
00000050: 070d b93d 4c40 593d e468 e9bb c71c 323e
00000060: 5de1 723d fdd1 7f3b 17f7 d23c 3442 b23d
00000070: 4030 433e 33f8 57bd 701a c8bd 510e 32be
00000080: efb5 17be c4c4 1b3d 66bb d23d 5d78 69bc
00000090: b758 36bc a26c f73d 9ac9 18be e22e 68be
000000a0: 80fe 0b3b 9116 87bc 2571 433e 46ed 01be
000000b0: f028 053d 1cec f4bc 9eea c63b 5c1e 18be
000000c0: 1628 eb3d 10ba 253e b02c 1fbd 5b56 db3c
000000d0: 4623 25bd 6261 283e df28 5abe 288a 563d
000000e0: 49fd d8bd 9bc0 89bd ddbe 883d 2fea 233d
000000f0: fa18 2d3e 2ea3 14be baa2 58bd ed93 a73d
00000100: 3226 ca3d f17b 04bd 6eb5 a2bd 7b48 c1bd
00000110: d514 433e 9e5b b43d 3303 4cbe 1060 b33c
00000120: ba2f c23c 315c a93c 1dd2 0dbe 4251 ea3c
00000130: b36e 12be 88dd dc3c becf e0bc decd 09bd
00000140: 0b19 38be eae4 cabd b296 c6bd 72ac f9bd
00000150: 1861 5dbd 7b4d 56bd bd97 ef3d e1b8 103d
00000160: 2e46 13bd 661d 033e 0ff8 a4ba 03a5 dcbd
00000170: 154d b53d 1788 4bbd ab66 d9bd 072f 73be
00000180: 0386 163e a28a f13d 46fd 66be 26cf 7a3d
00000190: 725e 98bd b583 cfbd 48a3 93bc b115 383e
000001a0: ce2b 403d 1465 15be f43c a43b aed4 40bc
000001b0: 6842 1b3e b3bc a6bb 8d21 eabc 2613 c93d
000001c0: 1d73 243d 675e 7d3d 6a1f ed3d dcdf 643c
000001d0: ece9 bf3d 45b7 6abe a3dc 673e 1c89 1abe
000001e0: 8337 98bd e56e 2bbe 0bde 49bd 32af 013d
000001f0: bc8a 863c b253 373e b8ac 533d 841c a8bb
00000200: 002b bfbd c627 a6bd 1fc5 893d 58d6 8ebd
00000210: 98a3 0a3e 3bbf 553d 9449 483e 9d40 47bc
00000220: 2737 fbbd 1f5e 8d3d b3d0 22be 5d19 0b3e
00000230: 9ce0 b23d 8704 87bc 2201 e93d 1fa8 1bbd
00000240: 5670 1f3d 9cc2 1cbd 911a af3d aa16 eb3c
00000250: fc8a bfbd d94f 88bc 85d8 1cbd ff23 873d
00000260: 015a 8cbe 1b62 01be fafe adbd d311 a43d
00000270: 54ca 043c 7969 68bc 5252 113e 97a1 1a3d
00000280: a7c0 863c 99eb 5abd e0e0 72be af5f 2b3d
00000290: a4d3 82bd 5ed2 c3bd dd4b 4e3e 2a73 3b3e
000002a0: 1e09 993d a4b8 e7bd 57cb 52be a570 33be
000002b0: a769 aa3d 71ff a63d eb5c 933d b4b6 723c
000002c0: eb10 a7bc 6132 7e3d 1b70 2d3a 6b70 e83d
000002d0: 7712 19bd 5a2c b3bd 833f 1f3e f09f 99bd
000002e0: c9c6 debd faff 89bd 403e 763c ea67 fdbd
000002f0: 1255 db3c 1e46 ad3d efc5 72bd dc2b 4f3e
00000300: bddc 893c 2fd5 cabd ab79 9bbd d196 1fbe
00000310: 4aaf 293e 5185 cfbd 3957 f83c d834 2ebd
00000320: 284c 82bd b6a9 8c3d 2267 ab3d 4af3 8c3d
00000330: c75a 303d dbfc 0a3e fe55 513e 2d70 4c3e
00000340: af5d 72bd acbf f4bd 7623 a63d 4b57 55be
00000350: 0c00 603d 5136 2cbe bff4 053e de83 943c
00000360: 30e0 f1bd 06d1 3bbd 66a3 4abe a54b 523d
00000370: 56fd d7bd 4d5d 033e 2164 893e 4b2a 423d
00000380: ec4b 07bc f22f 3dbe da43 173e 1092 083d
00000390: 930b 213e a773 1f3e e30b 2fbe 8eda a73d
000003a0: 91dd 1fbe 0311 3dbe 700e 8f3e 6369 773e
000003b0: e887 55be 8976 063e d54a f33c 5a15 fabd
000003c0: 766f c13c 115d f6bd eb73 29be dbb2 3ebe
000003d0: b1b8 6b3e 6361 88bd 2d11 46be 09b0 ae3b
000003e0: 2af7 bfbd 03a4 463d 5a03 41be 98b9 d7bd
000003f0: 56b2 b6bd 7e83 69be 29a8 c4bd 2ee4 6bbd

hidden_layers_x.4.fc.1.weight f4 [32]
0.95456374 0.91601545 0.92540663 0.92873496 0.9363476 0.95889205 0.94827634 1.0561045
1.0957797 0.8845674 0.9435775 0.95760834 0.9686749 0.9739745 1.018979 1.0770098
0.9851114 1.0849283 1.0501404 1.1148698 1.0214643 1.0462959 0.9664585 0.95833033
0.95228845 0.9840539 0.9457843 0.9339756 1.0131027 0.8603582 0.98751515 0.8957744
00000000: 4a5e 743f fd7f 6a3f 73e7 6c3f 93c1 6d3f
00000010: 7ab4 6f3f f379 753f 3dc2 723f 6f2e 873f
00000020: 8242 8c3f 0273 623f 4c8e 713f d225 753f
00000030: 14fb 773f 6556 793f e76d 823f 75db 893f
00000040: 4330 7c3f eede 8a3f 006b 863f 0eb4 8e3f
00000050: 58bf 823f 06ed 853f d369 773f 2355 753f
00000060: 2dc9 733f f5ea 7b3f eb1e 723f 0619 6f3f
00000070: 59ad 813f 6f40 5c3f cbcd 7c3f 7951 653f

hidden_layers_x.4.fc.1.bias f4 [32]
-0.048149493 0.085211426 0.049223233 -0.036551736 -0.018671973 -0.03269168 -0.18753394 -0.10580554
0.07811548 0.09603908 -0.033621695 0.013336247 -0.0837872 0.0010807363 0.045587234 -0.09560855
0.08123039 -0.09539879 -0.025607023 0.0052283686 0.06490213 -0.06668163 0.004660536 0.101286404
-0.08370037 0.129062 0.07121529 -0.011797861 -0.10401756 -0.13223584 0.09672845 0.08254513
00000000: 6738 45bd 5483 ae3d 4d9e 493d 46b7 15bd
00000010: f7f5 98bc b6e7 05bd e608 40be 93b0 d8bd
00000020: 02fb 9f3d 23b0 c43d e7b6 09bd 4680 5a3c
00000030: a098 abbd 7ea7 8d3a aeb9 3a3d 6ace c3bd
00000040: 1e5c a63d 7160 c3bd d2c5 d1bc bc52 ab3b
00000050: 68eb 843d 6190 88bd 69b7 983b 3f6f cf3d
00000060: 196b abbd d428 043e 52d9 913d d14b 41bc
00000070: 2907 d5bd d568 07be 9119 c63d 6c0d a93d

hidden_layers_x.4.fc.3.weight f4 [32, 32]
0.23210758 0.08938651 -0.038083706 0.014339716 -0.09155836 -0.051918894 -0.32783198 -0.114563994
0.2500366 0.10142557 0.04627336 -0.045154557 -0.038443122 0.28891784 0.09420185 -0.32096058
0.04377286 -0.13303854 -0.027932582 0.30509922 -0.09780445 0.25256827 -0.23561613 0.19372915
-0.08540997 0.18316907 -0.065386556 0.09058221 0.16106607 -0.13142109 0.12917803 -0.15742335
0.17168161 -0.019599317 -0.049166016 -0.0011559948 -0.013564265 -0.04311082 0.20120367 0.06377606
0.09954184 -0.1175316 0.176181 0.14019984 -0.02877411 0.025380993 0.1297012 0.26820412
0.10074366 0.056494035 -0.11524934 0.066790305 -0.08876725 0.15798455 0.055294003 -0.048626907
-0.020317871 0.029890915 0.054045502 0.19295976 -0.017875118 0.10809881 -0.114887 -0.0077544814
0.10183361 -0.081976146 -0.099286325 0.020009419 -0.077079505 -0.12773596 0.029040439 0.22267775
0.14517225 0.119516164 0.08751953 -0.11437433 -0.03607074 -0.07263298 -0.010793337 0.12778567
-0.15046063 -0.21283522 -0.039209884 -0.13934194 -0.15468024 0.23815827 -0.007185623 0.0079805385
-0.18252634 -0.010730558 0.008731137 0.098766096 -0.20790292 0.048253722 -0.056346882 -0.12118197
0.2627889 0.09146014 -0.21414815 0.076177664 -0.06669852 0.092982024 -0.07556105 -0.15735014
0.3679212 0.0889444 -0.18781373 -0.08099383 -0.14014935 -0.038504947 0.03128011 -0.16362028
-0.12005998 0.09588137 0.00830015 0.20347762 -0.32712492 0.32657263 -0.05316612 -0.060543112
-0.031693824 0.089059405 -0.2276127 -0.010163521 -0.17339328 -0.030325763 0.027535297 -0.023275398
-0.18057454 -0.10456709 0.06342743 0.2299829 0.14565966 0.17051947 -0.10622391 -0.015490034
-7.565721e-06 0.15263641 0.044268824 -0.052609034 -0.23728156 0.033554025 0.0026892656 -0.07292048
0.034525268 0.12905563 0.16265915 -0.0052254274 -0.16735564 -0.071171 0.03034536 0.027485702
-0.20024998 0.11746253 0.09963276 -0.16582029 -0.18462707 -0.029324496 0.08223751 0.015849844
-0.051622685 0.18624355 0.022967711 -0.03478618 -0.018762842 -0.033731688 -0.0476573 0.17031935
0.1195089 0.03335305 -0.10286577 -0.10234897 0.046682302 -0.02340181 0.01859312 0.015905824
-0.103900515 0.085248806 0.019730296 0.07021391 -0.17689854 -0.041513868 0.061795477 0.16018449
-0.06359917 -0.09363994 -0.016204031 0.10439403 -0.08799304 -0.18170184 -0.079573326 -0.13844354
-0.0024292113 -0.08327787 -0.10319234 -0.08387028 -0.09732291 0.16291137 -0.17210953 0.014634606
-0.08705417 -0.032019563 0.20059049 0.041854076 0.022235293 -0.037986863 0.09799779 0.0613292
-0.030251868 -0.03835953 -0.008769127 0.1685923 0.15324427 0.02320077 -0.07222884 -0.007450241
-0.07136471 -0.047625005 -0.24514282 -0.15196046 -0.0049958318 0.036364034 0.18097563 0.11989225
-0.09781716 -0.0832906 -0.07950625 -0.028554568 0.045815352 -0.120247945 0.10125901 0.17837295
-0.080608204 0.002807524 -0.058141503 0.028288987 -0.11621371 -0.1555276 -0.12350302 -0.19804454
0.15460236 -0.047647912 -0.22184063 -0.09232215 0.0506431 -0.020918196 0.024068333 -0.050623663
0.18310708 -0.15708478 0.043376047 0.027762225 0.15995623 -0.012934445 0.13694014 0.031695228
00000000: 9cad 6d3e 4610 b73d a9fd 1bbd 21f1 6a3c
00000010: f382 bbbd e8a8 54bd 98d9 a7be 87a0 eabd
00000020: cc04 803e 36b8 cf3d 2289 3d3d fcf3 38bd
00000030: 8976 1dbd 0aed 933e e6ec c03d f254 a4be
00000040: 2c4b 333d 413b 08be dfd2 e4bc f735 9c3e
00000050: b34d c8bd a150 813e 5b45 71be ef60 463e
00000060: 6ceb aebd ac90 3b3e 63e9 85bd 2a83 b93d
00000070: 81ee 243e 4093 06be 3f47 043e 9633 21be
00000080: 4ecd 2f3e bf8e a0bc 4e62 49bd c084 97ba
00000090: a73c 5ebc f994 30bd 5608 4e3e 069d 823d
000000a0: 98dc cb3d 68b4 f0bd cb68 343e 8c90 0f3e
000000b0: afb7 ebbc cdeb cf3c 64d0 043e 0d52 893e
000000c0: b152 ce3d 4a66 673d d907 ecbd 5bc9 883d
000000d0: 9bcb b5bd b4c6 213e f77b 623d 022d 47bd
000000e0: aa71 a6bc cbdd f43c d15e 5d3d 3e97 453e
000000f0: d76e 92bc e962 dd3d e049 ebbd 4e19 febb
00000100: 248e d03d 1ce3 a7bd a156 cbbd cbea a33c
00000110: dcdb 9dbd 37cd 02be 37e6 ed3c a305 643e
00000120: 09a8 143e e4c4 f43d 703d b33d 173d eabd
00000130: eabe 13bd 9ac0 94bd 89d6 30bc 3fda 023e
00000140: 5a12 1abe 7af1 59be 8b9a 20bd a7af 0ebe
00000150: 7f64 1ebe c3df 733e 6075 ebbb cec0 023c
00000160: 2fe8 3abe 39cf 2fbc 0b0d 0f3c e145 ca3d
00000170: 81e4 54be b2a5 453d fdcb 66bd 412e f8bd
00000180: 448c 863e 744f bb3d a749 5bbe 0903 9c3d
00000190: 3c99 88bd 5c6d be3d c0bf 9abd 6520 21be
000001a0: 2b60 bc3e 7b28 b63d 3e52 40be 18e0 a5bd
000001b0: 5083 0fbe 5db7 1dbd 931f 003d 138c 27be
000001c0: 02e2 f5bd 745d c43d 5afd 073c 705c 503e
000001d0: eb7c a7be 8734 a73e b8c4 59bd 0efc 77bd
000001e0: 62d1 01bd c764 b63d 4e13 69be e684 26bc
000001f0: 028e 31be bc6d f8bc b491 e13c 0cac bebc
00000200: 88e8 38be 4527 d6bd 3ee6 813d a380 6b3e
00000210: ce27 153e a89c 2e3e ec8b d9bd e9c9 7dbc
00000220: 0cdd fdb6 b84c 1c3e 3a53 353d 927c 57bd
00000230: f0f9 72be f26f 093d 643e 303b 5557 95bd
00000240: 5e6a 0d3d 2927 043e 1f90 263e 103a abbb
00000250: 475f 2bbe 1ac2 91bd d596 f83c b229 e13c
00000260: 550e 4dbe 3290 f03d 430c cc3d cbcc 29be
00000270: e10e 3dbe ed39 f0bc 246c a83d 88d7 813c
00000280: 4f72 53bd a1b6 3e3e c826 bc3c f47b 0ebd
00000290: 88b4 99bc 3d2a 0abd 4d34 43bd 3268 2e3e
000002a0: 15c1 f43d 359d 083d 4aab d2bd 569c d1bd
000002b0: f135 3f3d 27b5 bfbc 9950 983c ee4c 823c
000002c0: cbc9 d4bd ed96 ae3d 6ea1 a13c 4fcc 8f3d
000002d0: e424 35be 720a 2abd 411d 7d3d 6707 243e
000002e0: 4840 82bd 4cc6 bfbd 51be 84bc 8acc d53d
000002f0: b235 b4bd 0c10 3abe 57f7 a2bd 25c4 0dbe
00000300: 6733 1fbb 978d aabd 8156 d3bd 2ec4 abbd
00000310: 3c51 c7bd 3dd2 263e 7b3d 30be fdc5 6f3c
00000320: 7549 b2bd f226 03bd 9867 4d3e 2e6f 2b3d
00000330: ca26 b63c 1d98 1bbd 11b3 c83d 5434 7b3d
00000340: c4d2 f7bc e21e 1dbd 62ac 0fbc 76a3 2c3e
00000350: 11ec 1c3e 8b0f be3c b7ec 93bd 2721 f4bb
00000360: a927 92bd 7012 43bd b806 7bbe 869b 1bbe
00000370: 13b4 a3bb 74f2 143d ad51 393e 118a f53d
00000380: 5d54 c8bd 4394 aabd 2cd4 a2bd 45eb e9bc
00000390: e1a8 3b3d 8e44 f6bd e260 cf3d 66a7 363e
000003a0: ea15 a5bd 70fe 373b c925 6ebd 4ebe e73c
000003b0: 7401 eebd a142 1fbe 27ef fcbd 30cc 4abe
000003c0: 1550 1e3e 752a 43bd 312a 63be 6513 bdbd
000003d0: 246f 4f3d a35c abbc f42a c53c c25a 4fbd
000003e0: 6c80 3b3e d5da 20be 15ab 313d 9b6d e33c
000003f0: 91cb 233e ffea 53bc 093a 0c3e dbd2 013d

hidden_layers_x.4.fc.4.weight f4 [32]
0.776958 0.9408818 1.0119476 0.73459035 0.8595679 0.8600161 0.83187246 0.91523236
0.9747137 0.8785063 0.87730825 0.8701003 0.7997389 0.93041533 0.8882452 0.9210566
1.0171527 0.89481133 0.88903075 0.8066805 1.0127172 1.0331128 0.8668944 1.007959
1.0021669 0.9475585 0.8713166 0.8647607 0.9453901 0.73280656 0.99579316 0.9366817
00000000: b8e6 463f a1dd 703f 8087 813f 1d0e 3c3f
00000010: a40c 5c3f 042a 5c3f 98f5 543f ab4c 6a3f
00000020: d686 793f cae5 603f 4697 603f e5be 5e3f
00000030: b0bb 4c3f b32f 6e3f 0a64 633f 5eca 6b3f
00000040: 0f32 823f 5b12 653f 8597 633f 9d82 4e3f
00000050: b8a0 813f 0a3d 843f cbec 5d3f cd04 813f
00000060: 0147 803f 3293 723f 9b0e 5f3f f560 5d3f
00000070: 1605 723f 3699 3b3f 4dec 7e3f 5fca 6f3f

hidden_layers_x.4.fc.4.bias f4 [32]
-0.11796638 -0.014887879 0.04210946 -0.13872238 -0.14506358 -0.03697809 -0.05794949 -0.12041031
-0.080411814 -0.08034033 -0.118314855 0.0030849352 -0.022727748 -0.030465348 -0.04792574 -0.08581252
-0.05425793 -0.090870254 -0.062333953 -0.20649119 0.018035358 -0.026864363 -0.18491262 0.009539702
-0.016217882 0.043635104 -0.11286392 -0.13100399 -0.08571598 -0.09958461 -0.03500264 -0.06521679
00000000: 5c98 f1bd 4aec 73bc f87a 2c3d 3d0d 0ebe
00000010: 8c8b 14be 5676 17bd 725c 6dbd ae99 f6bd
00000020: f3ae a4bd 7989 a4bd 0f4f f2bd a02c 4a3b
00000030: 8b2f babc 7792 f9bc c84d 44bd 79be afbd
00000040: 903d 5ebd 2f1a babd e351 7fbd 6d72 53be
00000050: e3be 933c a712 dcbc bc59 3dbe 694c 1c3c
00000060: 5ddb 84bc b9ba 323d 3325 e7bd e925 06be
00000070: dc8b afbd 04f3 cbbd ee5e 0fbd 6190 85bd

hidden_layers_x.5.weight f4 [2, 32]
0.15221125 0.14042476 -0.009165076 0.2514598 -0.05048292 0.043500308 0.013599614 -0.04293776
-0.22028063 -0.12480311 0.02346405 0.05420791 0.052985564 -0.04413653 -0.0028821023 0.018587358
0.033091515 0.20984547 -0.0016343112 0.023914188 0.16661891 -0.216564 0.10502319 0.13556927
0.050907332 0.13014811 0.18009298 -0.029086618 -0.15096489 0.15455927 -0.25150245 -0.059941445
-0.00031174775 -0.004181323 -0.0063239336 0.0005568928 0.0047337105 -0.0056418455 0.0046275132 0.002504152
-0.0029609082 -0.0040765284 -0.0009247159 0.00058918813 0.009466867 -0.001635062 -0.004385127 0.005036845
-0.00055468 0.0038629377 -0.0058042486 0.0035766086 0.0029522206 -0.0011105491 0.0053111142 0.0027779774
0.0056298175 -0.0038913551 0.0010344983 -0.0035747648 -0.0017488225 0.0009430819 -0.0014501133 0.0024938001
00000000: 44dd 1b3e 82cb 0f3e 1d29 16bc 57bf 803e
00000010: 2ec7 4ebd 612d 323d ead0 5e3c 81df 2fbd
00000020: 3f91 61be c698 ffbd ae37 c03c 1d09 5e3d
00000030: 6407 593d 82c8 34bd a7e1 3cbb 8444 983c
00000040: f88a 073d bbe1 563e 6236 d6ba b0e7 c33c
00000050: 269e 2a3e f4c2 5dbe 6616 d73d acd2 0a3e
00000060: 3584 503d 8c45 053e 4b6a 383e 0f47 eebc
00000070: 8a96 1abe c944 1e3e eec4 80be 2985 75bd
00000080: 1372 a3b9 7b03 89bb 0039 cfbb 71fc 113a
00000090: 3e1d 9b3b 3bdf b8bb 65a2 973b b31c 243b
000000a0: cc0b 42bb 6694 85bb a268 72ba bf73 1a3a
000000b0: eb1a 1b3c 944f d6ba 1db1 8fbb 1e0c a53b
000000c0: f267 11ba 5729 7d3b 9131 bebb 8965 6a3b
000000d0: 0b7a 413b d88f 91ba db08 ae3b ba0e 363b
000000e0: 557a b83b 1b06 7fbb 0198 873a 9a46 6abb
000000f0: bf38 e5ba 2839 773a ba11 beba 066f 233b

hidden_layers_x.5.bias f4 [2]
0.22227867 -0.0067984974
00000000: 059d 633e eec5 debb

hidden_layers_c.0.weight f4 [32, 7]
-0.11597098 -0.17699437 0.27541938 -0.17069189 -0.17795596 0.1632846 -0.3848 0.18782768
0.20853806 0.050933454 0.019124229 0.13470674 0.27215138 0.031223765 -0.24273157 0.34695485
0.34504798 0.07811882 -0.14796795 -0.08318033 -0.46205673 0.24927633 -0.051572524 0.24653998
0.13809028 -0.07832631 -0.24869393 0.20838962 -0.15165833 -0.01737825 0.19116369 -0.20623007
0.013033397 -0.14812373 0.1946187 0.2521684 0.17657128 -0.10199811 0.33910626 -0.099508725
0.24461071 0.09960374 0.037901822 -0.23745513 0.3560229 -0.059900083 0.27699205 -0.18185404
-0.1382342 0.23633358 -0.2986673 0.15536211 0.13756992 -0.29586136 0.114450365 -0.34702426
0.12735838 0.0053292112 0.21446052 0.01935072 -0.13405293 -0.12708117 -0.12529697 0.16723403
-0.036738746 -0.3047271 0.10770497 -0.0009977969 0.26693466 -0.08206491 0.3140727 0.06318854
-0.16285524 0.2199394 0.02668235 0.32043776 -0.27144828 -0.0062531973 0.17838149 0.11369649
0.15067525 0.38618317 0.11399199 0.1993992 0.105487294 -0.021827383 0.26308382 -0.13096935
0.03474418 -0.011518932 -0.12781365 0.25613546 -0.03878779 -0.13412832 0.40219983 -0.04801662
0.17530845 -0.3254757 0.27168015 -0.17379546 -0.12176757 0.22126828 0.050316706 0.34602597
-0.0053755934 -0.4571354 -0.36764473 -0.20946214 -0.20133483 -0.10508176 0.14935224 0.22329846
-0.4155661 -0.27511853 0.32531324 -0.036280148 -0.15369193 -0.22703683 -0.21644883 -0.31726357
0.3669974 -0.16138425 -0.10739627 0.072338454 0.19675308 0.30637315 -0.034812614 -0.28853726
0.24039817 -0.13427152 0.04666483 -0.34446508 -0.35289064 -0.05948141 -0.08763506 -0.019087397
0.10596907 0.019853784 -0.19615428 0.09483315 0.33895046 0.32176238 0.2242318 0.16594899
0.16650914 0.3503181 -0.27577975 -0.2628194 0.31369063 0.29051003 -0.29002002 0.16507247
-0.32953578 0.00700212 0.29443195 -0.20629402 0.16301876 0.24683106 0.109505594 -0.17390735
0.027970804 -0.24104011 -0.1424331 -0.1998642 0.24608877 0.10297735 0.3109108 0.26304203
-0.0735887 0.38803688 -0.18586467 -0.061376497 -0.03515943 0.11187279 -0.19827645 -0.24313143
0.33640847 0.30993587 0.23387806 0.21987386 -0.061479233 -0.22680865 -0.35488394 -0.04127345
0.20824304 0.15777008 0.25256595 -0.24073727 -0.48620462 0.20638257 0.27223033 -0.09425251
0.08261076 0.18140762 0.18230014 0.09027379 -0.3694756 -0.15506132 0.26853183 0.07268398
-0.21953799 -0.16621195 0.029741393 0.33034298 0.030032462 0.17825271 -0.053765804 0.18150239
-0.011888848 0.29767087 0.26802826 -0.25984806 -0.22468893 -0.09661377 -0.02219588 -0.068089426
-0.28448358 0.033231102 0.2133451 -0.21324977 0.15206575 -0.13067509 0.24201389 0.021885
00000000: 3182 edbd 033e 35be c503 8d3e dbc9 2ebe
00000010: 163a 36be 1434 273e 8104 c5be e655 403e
00000020: 008b 553e 999f 503d 6aaa 9c3c 90f0 093e
00000030: 6d57 8b3e fbc8 ff3c a08e 78be 11a4 b13e
00000040: 21aa b03e c3fc 9f3d e984 17be 735a aabd
00000050: b392 ecbe 4b42 7f3e b63d 53bd fa74 7c3e
00000060: 8a67 0d3e 8b69 a0bd 9fa9 7ebe 1764 553e
00000070: 524c 1bbe d55c 8ebc 6ac0 433e fa2d 53be
00000080: 078a 553c bfad 17be 204a 473e 371c 813e
00000090: 1acf 343e 63e4 d0bd 569f ad3e 3bcb cbbd
000000a0: 3b7b 7a3e 0cfd cb3d f13e 1b3d 7027 73be
000000b0: a248 b63e ca59 75bd e7d1 8d3e f237 3abe
000000c0: 448d 0dbe 6e01 723e ecea 98be 3f17 1f3e
000000d0: 21df 0c3e 247b 97be f464 ea3d 2aad b1be
000000e0: 3c6a 023e aaa0 ae3b 8a9b 5b3e 6785 9e3c
000000f0: 2c45 09be 9121 02be d94d 00be 663f 2b3e
00000100: 5e7b 16bd 3105 9cbe 6c94 dc3d 82c8 82ba
00000110: a9ab 883e a611 a8bd 23ce a03e fe68 813d
00000120: 86c3 26be cb37 613e f294 da3c 6b10 a43e
00000130: 45fb 8abe 9fe7 ccbb a3a9 363e b5d9 e83d
00000140: 9d4a 1a3e cdb9 c53e a274 e93d 4e2f 4c3e
00000150: b909 d83d 57cf b2bc ecb2 863e d41c 06be
00000160: ea4f 0e3d e7b9 3cbc 95e1 02be 3024 833e
00000170: f2df 1ebd ef58 09be 23ed cd3e 13ad 44bd
00000180: 0f84 333e c0a4 a6be a919 8b3e 70f7 31be
00000190: 4761 f9bd 2794 623e e418 4e3d 512a b13e
000001a0: bf25 b0bb a70d eabe ee3b bcbe 3e7d 56be
000001b0: b82a 4ebe 1b35 d7bd cbef 183e 5aa8 643e
000001c0: 14c5 d4be 56dc 8cbe 758f a63e 7e9a 14bd
000001d0: 6b61 1dbe 587c 68be c3a4 5dbe 5f70 a2be
000001e0: 15e7 bb3e ea41 25be 93f2 dbbd 2f26 943d
000001f0: a479 493e f1dc 9c3e ac97 0ebd 28bb 93be
00000200: f02a 763e 797e 09be 9f23 3f3d ba5d b0be
00000210: 15ae b4be c7a2 73bd 037a b3bd 2c5d 9cbc
00000220: 5006 d93d 67a4 a23c abdc 48be e237 c23d
00000230: ea8a ad3e 0abe a43e 059d 653e 88ee 293e
00000240: 5f81 2a3e e55c b33e 0133 8dbe 4490 86be
00000250: 0f9c a03e bbbd 943e 817d 94be c208 293e
00000260: eab8 a8be 0a72 e53b c9bf 963e bd3e 53be
00000270: 64ee 263e 48c1 7c3e 7844 e03d c514 32be
00000280: 0723 e53c 38d3 76be fcd9 11be 33a9 4cbe
00000290: b2fe 7b3e cae5 d23d b32f 9f3e 72ad 863e
000002a0: acb5 96bd c5ac c63e 4f53 3ebe ec65 7bbd
000002b0: 5603 10bd 901d e53d fb08 4bbe 72f7 78be
000002c0: bb3d ac3e eaaf 9e3e bb7d 6f3e 9d26 613e
000002d0: a6d1 7bbd 8740 68be 59b3 b5be 590e 29bd
000002e0: aa3d 553e 7b8e 213e 5350 813e d583 76be
000002f0: d0ef f8be f455 533e c661 8b3e 7607 c1bd
00000300: d52f a93d ebc2 393e e3ac 3a3e 77e1 b83d
00000310: e82b bdbe 65c8 1ebe 017d 893e 57db 943d
00000320: 91ce 60be 7733 2abe 39a4 f33c b722 a93e
00000330: a306 f63c e187 363e 8839 5cbd c3db 393e
00000340: 71c9 42bc 5168 983e 003b 893e ce0a 85be
00000350: db14 66be 71dd c5bd 22d4 b5bc 7872 8bbd
00000360: d5a7 91be 561d 083d 2377 5a3e 265e 5abe
00000370: 20b7 1b3e b1cf 05be 7dd2 773e 2c48 b33c

hidden_layers_c.1.weight f4 [32]
0.9877678 0.90328556 1.1496394 1.0240272 1.00904 0.8937621 0.97215927 0.9834587
1.0103391 0.8178394 0.9396584 0.95615125 0.940358 1.0007439 0.9935573 1.0066155
1.0319374 1.1892569 1.1035371 0.959912 0.9489642 1.2450019 0.94647163 0.86557
1.1373544 1.0544637 1.0617732 0.8949105 1.0430849 0.9690598 1.1165577 0.97089624
00000000: 5ade 7c3f b93d 673f 6227 933f 5313 833f
00000010: 3928 813f 98cd 643f 6edf 783f f3c3 7b3f
00000020: cb52 813f ec5d 513f 748d 703f 54c6 743f
00000030: 4dbb 703f 6018 803f c559 7e3f c7d8 803f
00000040: 8616 843f 9239 983f b440 8d3f cbbc 753f
00000050: 51ef 723f 395c 9f3f f74b 723f ff95 5d3f
00000060: d494 913f abf8 863f 2fe8 873f db18 653f
00000070: ce83 853f 4e14 783f 5deb 8e3f a88c 783f

hidden_layers_c.1.bias f4 [32]
0.12294337 -0.11457878 0.039124854 0.005023429 0.14371525 -0.19501974 -0.041046098 -0.009632641
0.09417159 -0.115814686 0.047855888 -0.01755887 -0.034657218 0.0540304 -0.020752233 -0.014233709
0.20447373 -0.048752654 0.02760222 -0.062314663 -0.1493491 -0.060893446 -0.117686555 0.13287243
0.10216307 -0.09513839 -0.16737647 -0.0251435 0.12415055 -0.07727124 0.030197186 0.06091617
00000000: bcc9 fb3d 48a8 eabd 6241 203d 949b a43b
00000010: 172a 133e 41b3 47be f41f 28bd 3ad2 1dbc
00000020: 09dd c03d 4030 edbd 8904 443d 9fd7 8fbc
00000030: baf4 0dbd fb4e 5d3d 9600 aabc 8134 69bc
00000040: 9061 513e ddb0 47bd 0d1e e23c a93d 7fbd
00000050: f8ee 18be 686b 79bd a605 f1bd b60f 083e
00000060: df3a d13d ebd7 c2bd bd64 2bbe bef9 cdbc
00000070: a542 fe3d 6240 9ebd 1760 f73c 3c83 793d

hidden_layers_c.3.fc.0.weight f4 [32, 32]
0.009465733 0.121209964 0.0024161802 0.14098147 0.05638928 -0.041490678 -0.04119457 0.18632787
-0.1690941 -0.035349954 0.12767665 -0.07861921 0.047701236 0.079299286 0.06745811 0.16286498
-0.10089848 0.120491296 -0.11389718 0.051649656 0.09729861 0.042990815 -0.08597943 0.15886967
-0.07011402 -0.19619456 -0.024921069 0.0415367 0.017751789 0.14772424 -0.02615125 -0.15313531
0.124979876 0.0828987 -0.24387763 0.16111116 -0.13513571 -0.091093324 0.15523782 0.05663287
0.093426235 0.22901148 -0.014373606 0.036089096 -0.07196012 0.018713329 0.07708689 -0.046712007
-0.09634866 -0.09924068 -0.06923503 -0.029301345 0.09973838 -0.10084208 -0.1645242 -0.006135155
0.06463928 0.03933311 -0.14820048 -0.027828319 -0.15234059 -0.10928564 0.10497972 -0.02224599
-0.10124157 -0.13674466 -0.09595243 -0.06921185 0.032965697 0.055014975 -0.022740385 0.12982574
0.085059084 0.02259471 0.0050450545 -0.028380396 -0.08088808 -0.1322327 -0.22644694 -0.15791637
-0.111639775 0.0082834475 0.10844699 0.006972566 -0.102177784 0.005158077 -0.14056575 0.054869384
-0.1265373 -0.07594386 0.08528466 -0.03052545 0.07391254 0.1533366 -0.17044152 -0.052758705
0.0864153 -0.18984161 0.09826983 -0.2483201 0.1109516 0.040103745 0.023278335 0.036858357
-0.09628933 0.14961767 0.10353818 0.04688742 -0.17685227 0.016680757 -0.0989938 0.038639966
0.003075758 0.25784644 0.04837881 -0.12125817 0.1487589 -0.05810104 -0.017378964 0.09478204
0.013689116 0.00083339016 -0.15830576 -0.02870838 0.051803604 -0.026047792 -0.09557668 0.12446216
0.10687262 -0.12640905 0.0538107 0.073056266 -0.06737962 -0.16965562 -0.044425488 0.10148555
-0.059865814 0.06642274 0.13734056 0.13144217 0.028085612 0.024168579 -0.10780071 0.11962876
0.14658296 -0.07613161 0.09991452 0.104288995 -0.09670328 -0.24504797 -0.008122688 -0.10648431
0.18395236 0.16202505 -0.10793998 0.12507215 -0.074159235 -0.15652797 0.13743763 -0.107164964
-0.0486732 -0.12497429 -0.00550339 -0.17873427 -0.102597244 -0.1301843 -0.033299204 -0.1875446
0.1126038 -0.029165072 0.18233012 0.06915916 -0.20136611 0.095530115 -0.22791165 0.09767152
-0.043468308 -0.11042027 -0.11026003 -0.0030346958 -0.16183881 0.07935601 0.03707748 -0.06060768
0.22628629 0.039324317 -0.04836517 -0.13863443 0.17867216 -0.1344039 0.069152236 0.15224114
0.104278095 0.08391475 0.03806327 -0.08567017 0.21726294 -0.18626167 0.115741506 -0.010211247
-0.107740715 0.2114222 0.035595473 -0.16541278 -0.23584819 -0.018565042 -0.20516086 0.12016259
0.050058655 0.03429738 0.07396114 0.20830989 0.08908979 0.3888453 -0.2550773 0.07467049
0.22161359 0.220776 -0.10391964 0.04439173 -0.12200328 0.0059469985 -0.115740955 0.24788648
0.13668789 -0.06936342 -0.0011548424 -0.053061824 0.0012256403 -0.125783 -0.022551395 -0.1662319
-0.23899694 -0.1253451 0.07785549 0.16749704 -0.022832416 0.021520365 0.09695036 -0.017495977
0.047797747 0.32610554 -0.13406709 -0.08453608 0.18472448 0.11974314 0.000597329 0.007898173
-0.21887504 0.087098144 -0.054822434 -0.09386305 -0.09076803 0.0348287 -0.24878687 -0.00038736503
00000000: 2916 1b3c ee3c f83d c758 1e3b 725d 103e
00000010: 72f8 663d 21f2 29bd a3bb 28bd bccc 3e3e
00000020: 0127 2dbe 1dcb 10bd abbd 023e 1c03 a1bd
00000030: 5f62 433d aa67 a23d 7a27 8a3d 14c6 263e
00000040: dda3 cebd 24c4 f63d ed42 e9bd 978e 533d
00000050: 7e44 c73d 2317 303d fc15 b0bd bbae 223e
00000060: f097 8fbd 3ae7 48be 4527 ccbc 6322 2a3d
00000070: 336c 913c 0645 173e 253b d6bc 81cf 1cbe
00000080: 73f5 ff3d cbc6 a93d 0fbb 79be 53fa 243e
00000090: 0461 0abe 238f babd aaf6 1e3e def7 673d
000000a0: 4156 bf3d fc81 6a3e 467f 6bbc 29d2 133d
000000b0: d45f 93bd b24c 993c bbdf 9d3d 1755 3fbd
000000c0: 7252 c5bd b33e cbbd 18cb 8dbd 6009 f0bc
000000d0: a343 cc3d 4b86 cebd 0879 28be 6909 c9bb
000000e0: 9961 843d c11b 213d dec1 17be 37f8 e3bc
000000f0: 2cff 1bbe 26d1 dfbd 9cff d63d 393d b6bc
00000100: be57 cfbd cb06 0cbe b582 c4bd f1be 8dbd
00000110: 0a07 073d 6257 613d 0b4a babc 0af1 043e
00000120: 7533 ae3d 8b18 b93c fc50 a53b 017e e8bc
00000130: a6a8 a5bd 0268 07be b5e1 67be d4b4 21be
00000140: 65a3 e4bd 4cb7 073c 7519 de3d 1f7a e43b
00000150: 9642 d1bd 1605 a93b 78f0 0fbe b8be 603d
00000160: fe92 01be 7488 9bbd b9a9 ae3d 8210 fabc
00000170: 755f 973d 4504 1d3e 3988 2ebe 8319 58bd
00000180: 81fa b03d d765 42be b141 c93d a047 7ebe
00000190: 983a e33d d343 243d 35b2 be3c caf8 163d
000001a0: 5733 c5bd 6035 193e d30b d43d 060d 403d
000001b0: c318 35be 15a6 883c 43bd cabd f144 1e3d
000001c0: a892 493b 7304 843e dc28 463d 3456 f8bd
000001d0: 4154 183e 5bfb 6dbd 545e 8ebc 161d c23d
000001e0: 5048 603c de77 5a3a e81a 22be d62d ebbc
000001f0: 0430 543d 2e62 d5bc b5bd c3bd 04e6 fe3d
00000200: 08e0 da3d 6071 01be 9c68 5c3d 869e 953d
00000210: 54fe 89bd 34ba 2dbe 80f7 35bd a8d7 cf3d
00000220: db35 75bd a508 883d 01a3 0c3e c798 063e
00000230: cc13 e63c 2ffd c53c 9ec6 dcbd ecff f43d
00000240: d819 163e e4ea 9bbd fc9f cc3d 7895 d53d
00000250: 5f0c c6bd dbed 7abe 0615 05bc 7214 dabd
00000260: 025e 3c3e e5e9 253e a30f ddbd ea12 003e
00000270: cce0 97bd de48 20be 73bc 0c3e 4e79 dbbd
00000280: 8d5d 47bd 85f2 ffbd c855 b4bb 1e06 37be
00000290: 811e d2bd 084f 05be bf64 08bd b10b 40be
000002a0: d29c e63d 97eb eebc bfb4 3a3e 51a3 8d3d
000002b0: eb32 4ebe 4ba5 c33d ac61 69be 0208 c83d
000002c0: d30b 32bd 0624 e2bd 03d0 e1bd bfe1 46bb
000002d0: 13b9 25be 6785 a23d 8ede 173d c23f 78bd
000002e0: 98b7 673e 8912 213d 8e1a 46bd 2ff6 0dbe
000002f0: d6f5 363e 2da1 09be b09f 8d3d 1ae5 1b3e
00000300: c18f d53d 7fdb ab3d 3be8 1b3d d873 afbd
00000310: 2d7a 5e3e 61bb 3ebe e209 ed3d 134d 27bc
00000320: 2aa7 dcbd 107f 583e 8fcc 113d f861 29be
00000330: 3082 71be b715 98bc b015 52be ce17 f63d
00000340: 4e0a 4d3d 697b 0c3d f078 973d 304f 553e
00000350: b574 b63d bb16 c73e 7e99 82be d8ec 983d
00000360: acee 623e 1b13 623e d2d3 d4bd 1ad4 353d
00000370: dbdc f9bd 0adf c23b 9809 edbd f4d5 7d3e
00000380: e9f7 0b3e 690e 8ebd 155e 97ba 5b57 59bd
00000390: aaa5 a03a 42cd 00be b4bd b8bc b238 2abe
000003a0: 9dbb 74be 775a 00be b372 9f3d 5884 2b3e
000003b0: 0c0b bbbc 7a4b b03c e98d c63d b953 8fbc
000003c0: 92c7 433d 4ef7 a63e e248 09be 4121 adbd
000003d0: 6a28 3d3e e43b f53d 1296 1c3a 5767 013c
000003e0: c720 60be 8360 b23d 7d8d 60bd 453b c0bd
000003f0: 97e4 b9bd 8aa8 0e3d fcc1 7ebe 4117 cbb9

hidden_layers_c.3.fc.1.weight f4 [32]
0.9748507 0.9663799 0.9999224 0.9560667 0.9691423 1.0649087 0.9608286 1.0532086
0.9219841 0.9225259 1.057557 0.95340234 0.9626878 1.0169953 1.0055902 1.0494413
0.947551 1.0360457 1.0224357 1.0563685 1.2180793 1.009846 1.0080171 0.98131025
0.8773556 1.3769695 0.9360854 1.0439851 0.9102614 0.9379432 1.0172307 0.9687179
00000000: d18f 793f ac64 773f eafa 7f3f cac0 743f
00000010: b619 783f ee4e 883f ddf8 753f 8acf 863f
00000020: 2607 6c3f a82a 6c3f 075e 873f 2d12 743f
00000030: b572 763f e72c 823f 2eb7 803f 1854 863f
00000040: b492 723f 259d 843f 2cdf 823f 1537 873f
00000050: 06ea 9b3f a242 813f b406 813f 2637 7b3f
00000060: 609a 603f 8940 b03f 4ba3 6f3f 4ea1 853f
00000070: e406 693f 0c1d 703f 9e34 823f e5fd 773f
